perception-subsystem/trained_emotion_model.pth (torch, 204939 bytes, 20 tensors)

network.0.weight f4 [256, 20]
0	0x3e11fdd5	0.14256985
1	0xbd850ab9	-0.06496186
2	0x3e7ae8e3	0.24502902
3	0xbe059594	-0.13045341
4	0xbd533d41	-0.05157209
5	0x3c49ef98	0.01232519
6	0xbcc4176e	-0.023936953
7	0x3ceb5fe3	0.028732246
8	0x3e2c5c1e	0.16832015
9	0x3d91ff06	0.0712872
10	0xbd1f0dcd	-0.03883152
11	0xbd46b420	-0.048511624
12	0xbd25921f	-0.040422555
13	0xbe61b99c	-0.2204346
14	0xbda7b140	-0.08188105
15	0x3e12e726	0.14345989
16	0x3e2932dd	0.16523309
17	0xbdbb6896	-0.091508076
18	0xbe2b29ee	-0.16715214
19	0xbe545073	-0.20733814
20	0xbdfd236b	-0.12360271
21	0x3e361151	0.17780043
22	0xbd2c0f82	-0.042006977
23	0xbdff4d51	-0.12465919
24	0xbde80043	-0.11328175
25	0x3dcc9b6e	0.09990583
26	0xbe32a077	-0.17444025
27	0xbdc7130c	-0.0972043
28	0xbd77bc37	-0.06048223
29	0x3a7f338c	0.0009735159
30	0xbe4b0313	-0.19825391
31	0x3c605ea7	0.013694442
32	0x3bc7500b	0.00608254
33	0x3ce68cc6	0.028143298
34	0xbdf5fe34	-0.12011376
35	0x3e6137a9	0.21993889
36	0x3de9b06e	0.114106044
37	0xbd871ff5	-0.06597892
38	0xbdc8f617	-0.09812563
39	0xbe6f637f	-0.23377798
40	0x3dde26b7	0.10847228
41	0x3e1958d9	0.14975299
42	0x3d1170d6	0.035508
43	0x3d502821	0.05081952
44	0x3e0a50f0	0.13507438
45	0xbc90c54c	-0.017672203
46	0xbe0c2073	-0.13684253
47	0xbe3e349c	-0.18574756
48	0x3e25cb11	0.16190745
49	0xbdaf2bbc	-0.085532635
50	0x3e30a9fa	0.17252341
51	0x3e3b858e	0.18312666
52	0xbcb9f72d	-0.02270087
53	0xbd5265d4	-0.051366642
54	0xbe4c3d20	-0.19945192
55	0xbd9ae25b	-0.07562705
56	0xbd8614ef	-0.065469615
57	0xbe667b98	-0.22508085
58	0x3c972b40	0.01845324
59	0xbc97a81f	-0.018512784
60	0x3d107c09	0.03527454
61	0x3c7dc14e	0.015487982
62	0xbe24b3d5	-0.16084225
63	0xbc30fd28	-0.010802545
64	0xbc4c2640	-0.012460291
65	0xbd50ff16	-0.05102452
66	0xbd24313f	-0.040086027
67	0xbdc310d9	-0.09524698
68	0xbe3a26ad	-0.18178816
69	0x3ceeaf43	0.029136306
70	0x3d00fa1e	0.03148853
71	0x3d704118	0.05865583
72	0xbbfe18f3	-0.007754439
73	0x3e133635	0.14376147
74	0x3dbfd181	0.093661316
75	0x3d26a0da	0.040680744
76	0xbe2fb337	-0.17158209
77	0x3e6cb318	0.23115194
78	0xbd45b205	-0.048265476
79	0xbe3c60ab	-0.18396251
80	0x3e480402	0.19532779
81	0x3e1de144	0.15417963
82	0xbdd62947	-0.10457092
83	0xbe4370a5	-0.19085939
84	0xbde8c8e4	-0.11366442
85	0xbe29b7a6	-0.16573963
86	0x3e3bb3d4	0.18330318
87	0x3e15b7fc	0.14620966
88	0x3dc454a0	0.095864534
89	0xbe4f5a5b	-0.20249312
90	0x3d0e0b52	0.034678765
91	0x3dbda391	0.092597134
92	0x3db8fd90	0.09032738
93	0xbdfc60a2	-0.12323119
94	0xbd80c751	-0.062880166
95	0xbdc9558b	-0.09830769
96	0x3e0b3f12	0.13598278
97	0x3dd2b9f7	0.10289376
98	0x3e13f6d2	0.14449623
99	0xbc052fba	-0.008129055
100	0xbd89c321	-0.06726671
101	0x3e30337c	0.1720714
102	0x3d00d740	0.03145528
103	0xbe0cf3a1	-0.13764812
104	0x3dfcfc11	0.12352765
105	0x3dd522ca	0.10407026
106	0xbe0ab2dc	-0.13544792
107	0xbca06e9a	-0.019583989
108	0xbd69f42d	-0.05711763
109	0xbe0dfe90	-0.13866639
110	0x3e1dd5f7	0.15413652
111	0x3deae6b7	0.114697866
112	0xbdc7dcb1	-0.097588904
113	0xbe120a90	-0.14261842
114	0x3e175afa	0.14780799
115	0x3d525d15	0.0513583
116	0xbe6ea236	-0.23304066
117	0xbe55af75	-0.20867713
118	0x3e22f73d	0.15914626
119	0x3e002474	0.12513906
120	0x3e06488a	0.13113609
121	0xbd8f176c	-0.06986889
122	0xbe48ac07	-0.19596873
123	0x3dbc0a60	0.091816664
124	0xbdbb85c8	-0.09156376
125	0xbd85962b	-0.06522783
126	0x3de0008c	0.10937604
127	0x3e6a844e	0.22902033
128	0xbdefdd31	-0.11712111
129	0xbe55ebd4	-0.20890743
130	0x3e0b36bd	0.135951
131	0x3d61747f	0.05504274
132	0xbc8a60f3	-0.016891932
133	0xbcd8b108	-0.026451603
134	0x3e1f3f4e	0.15551493
135	0x3e2aaeb1	0.16668202
136	0xbe3e9e35	-0.18615039
137	0x3dd59e10	0.10430539
138	0xbe58b439	-0.211625
139	0x3d20b13a	0.039231516
140	0xbe1be7eb	-0.15225188
141	0xbdbb1139	-0.09134144
142	0xbe1675e9	-0.14693417
143	0xbd6e8c0b	-0.058239024
144	0xbdc804a7	-0.09766512
145	0x3e67e93f	0.2264757
146	0x3ddbc621	0.107311495
147	0x3e28e224	0.16492516
148	0x3d5af721	0.053458337
149	0x3cdd80fa	0.02703904
150	0x3e0403da	0.12892094
151	0x3e1bf107	0.15228663
152	0x3dae9116	0.08523767
153	0x3ddc50c7	0.107575946
154	0xbdba1c10	-0.09087384
155	0x3cf8f210	0.030388862
156	0x3e2cae62	0.16863397
157	0xbe20d3f0	-0.15705848
158	0x3dfd47d9	0.123672195
159	0x3dafdffc	0.085876435
160	0x3e2aa86e	0.16665813
161	0xbe302db2	-0.17204931
162	0x3cc4d51a	0.024027396
163	0x3e2aadb7	0.1666783
164	0x3d28d24d	0.041216183
165	0x3e45c591	0.19313647
166	0x39394aec	0.00017670885
167	0xbbdd480e	-0.0067529744
168	0xbdcf062d	-0.101086
169	0x3da8d51e	0.08243774
170	0xbe05d6c6	-0.13070211
171	0x3e415629	0.18880524
172	0xbd11d6a8	-0.035605103
173	0x3ce8e78f	0.028430728
174	0x3d28926f	0.041155275
175	0x3d11f2c5	0.035631914
176	0xbdc04898	-0.09388846
177	0xbe1dfc6b	-0.15428321
178	0xbe19e663	-0.15029292
179	0x3e2f24e6	0.1710392
180	0xbd8ce6b2	-0.06879939
181	0x3d314d26	0.043286465
182	0xbe0fae27	-0.14031278
183	0x3e1ee8eb	0.15518539
184	0x3c4980d1	0.012298779
185	0xbe438235	-0.19092639
186	0xbe12e7c3	-0.14346223
187	0x3df704b9	0.12061448
188	0x3db37fc6	0.08764605
189	0x3db8af6c	0.09017834
190	0x3d31933f	0.043353315
191	0xbd970716	-0.073743984
192	0x3e62ff18	0.22167623
193	0xbd11c4b7	-0.035587993
194	0x3de8bd95	0.11364285
195	0x3e3cee4c	0.18450278
196	0x3e433f69	0.19067158
197	0xbe3883b6	-0.18018994
198	0xbdec57c9	-0.11540181
199	0xbd6edc83	-0.058315765
200	0xbcde2037	-0.02711497
201	0xbdaf6ece	-0.08566056
202	0x3e36e536	0.17860875
203	0xbe0922a6	-0.13392124
204	0xbd72c864	-0.05927314
205	0x3de56e87	0.11202722
206	0xbe2c8c02	-0.16850284
207	0x3e68aa1d	0.22721143
208	0x3d43f360	0.047839522
209	0xbe22e8d5	-0.15909131
210	0xbd30080f	-0.042976435
211	0x3e323e08	0.17406476
212	0x3da43e76	0.08019726
213	0x3e18320b	0.1486284
214	0x3e6a7f2a	0.22900072
215	0xbcea8485	-0.028627643
216	0xbda2a94c	-0.07942447
217	0xbda59238	-0.0808453
218	0xbc92db0d	-0.017926717
219	0xbdbdd996	-0.09270017
220	0x3e50a847	0.20376693
221	0x3e27ff0f	0.16405891
222	0xbe25de68	-0.16198123
223	0x3e6f116f	0.23346494
224	0xbcb30540	-0.02185309
225	0x3df661f8	0.12030405
226	0x3e2bfa83	0.16794781
227	0xbda6999a	-0.08134766
228	0x3d5455ac	0.051839516
229	0x3d8c0286	0.06836419
230	0x3dbda6db	0.09260341
231	0xbd11cc92	-0.035595484
232	0xbe4d2acc	-0.20035857
233	0xbe2cd24b	-0.16877095
234	0x3cbe0a0a	0.023198146
235	0xbe1ace42	-0.15117744
236	0xbc9c1f62	-0.019057933
237	0x3da21a36	0.079151556
238	0xbd1a04d3	-0.037602257
239	0xbe4e9894	-0.20175391
240	0x3c86cf38	0.016456231
241	0xbb49321f	-0.003070004
242	0x3ddeb013	0.10873427
243	0x3e359c9a	0.1773552
244	0x3dc064c3	0.09394219
245	0xbd9b24d5	-0.075753845
246	0x3e28ae0b	0.16472642
247	0x3e1d9cbd	0.15391822
248	0xbd920e99	-0.071316905
249	0x3e39a1fd	0.181282
250	0x3d06d4ca	0.032917775
251	0x3d706457	0.05868944
252	0xbe48091a	-0.19534722
253	0xbdb2461a	-0.08704777
254	0x3ca7e001	0.020492556
255	0x3e156c89	0.14592184

network.0.bias f4 [256]
0	0x3df36e30	0.11886251
1	0x3dd3b072	0.10336389
2	0xbcce146c	-0.025156222
3	0xbe3bf162	-0.18353799
4	0xbe1e23c2	-0.15443328
5	0xbdb9071e	-0.090345606
6	0x3e3838ca	0.17990413
7	0x3da19652	0.078899994
8	0xbe654c7b	-0.22392456
9	0x3dc11922	0.09428622
10	0xbe4cf703	-0.20016102
11	0xbdbb6d74	-0.09151736
12	0xbdaf5809	-0.08561713
13	0xbdfaa481	-0.12238408
14	0xbe096802	-0.13418582
15	0xbdf94ae5	-0.12172488
16	0x3df382fb	0.11890217
17	0xbe26ebe5	-0.16300924
18	0x3d3cd52e	0.04610174
19	0xbe0142da	-0.12623158
20	0xbe41d77d	-0.18929859
21	0x3e426ec5	0.18987568
22	0xbdfde299	-0.12396736
23	0x3e5c1c56	0.21495184
24	0x3d1fbdf0	0.038999498
25	0xbe119c0b	-0.14219682
26	0xbc046a83	-0.008082035
27	0x3d0259fd	0.0318241
28	0xbe58e26c	-0.21180123
29	0x3d86bfc6	0.06579547
30	0xbde6b51d	-0.11265013
31	0x3d0717ca	0.03298167
32	0x3dfa1129	0.12210304
33	0x3de3c5d1	0.11121715
34	0xbe14f71a	-0.14547387
35	0x3e341133	0.17584686
36	0xbe5a08a6	-0.21292362
37	0xbe17d17e	-0.14826009
38	0xbd2c9a87	-0.042139556
39	0xbdc064b0	-0.093942046
40	0xbbd7a7c9	-0.006581281
41	0x3d8cb87e	0.068711266
42	0x3de2f979	0.110827394
43	0x3deadbfe	0.114677414
44	0x3e1ab0e6	0.15106544
45	0xbe085eca	-0.13317409
46	0xbd258882	-0.040413387
47	0xbdce1fef	-0.100646846
48	0x3dd26e82	0.10274984
49	0xbd1310e9	-0.0359048
50	0x3e10e8fd	0.14151378
51	0x3d192455	0.037388165
52	0x3cce4b6f	0.025182454
53	0xbe410352	-0.18848923
54	0xbe7775da	-0.2416605
55	0x3d800771	0.06251419
56	0x3e62025f	0.22071217
57	0xbe2e9cdf	-0.17052029
58	0xbe33e2e6	-0.17567024
59	0x3e595529	0.21223892
60	0x3cda23d1	0.026628407
61	0x3db4185a	0.08793707
62	0xbe1976cb	-0.14986722
63	0xbd7e72c9	-0.062121186
64	0x3e30ffb7	0.17285047
65	0x3e4cf479	0.20015134
66	0xbdc07dab	-0.09398969
67	0x3e84e572	0.25956303
68	0xbcaad05c	-0.020851307
69	0xbda12d93	-0.07870021
70	0xbe6c361a	-0.23067513
71	0x3df217df	0.11820959
72	0x3d18a43c	0.037266
73	0x3c6f078f	0.014589204
74	0xbcc259e2	-0.0237245
75	0x3e797a7b	0.24363129
76	0xbd9d0318	-0.07666606
77	0xbc81a18c	-0.015824102
78	0x3e499dad	0.19689055
79	0xbd9d2382	-0.07672788
80	0xbcdb8f19	-0.026801633
81	0xbdefde18	-0.11712283
82	0xbe376a60	-0.17911673
83	0x3e6a42fa	0.22877112
84	0x3d054b27	0.032542374
85	0x3d8bb084	0.06820777
86	0x3e3cf0c1	0.18451215
87	0xbd9f2da1	-0.07772375
88	0xbe250db7	-0.16118513
89	0x3c66b146	0.014080351
90	0xbe0155e3	-0.1263042
91	0x3df70075	0.12060634
92	0xbe746215	-0.2386554
93	0x3e240d56	0.16020712
94	0xbdf14cd0	-0.11782229
95	0x3e0149bc	0.12625784
96	0x3cceaec6	0.025229823
97	0x3c82efa8	0.015983418
98	0x3de8c177	0.113650255
99	0xbe768dc5	-0.24077518
100	0xbe0e6d85	-0.13908966
101	0xbe0d5638	-0.13802421
102	0x3e1c9122	0.15289739
103	0x3db3574c	0.08756885
104	0xbe1ded19	-0.15422477
105	0xbbf56674	-0.00748902
106	0xbe2c5b7e	-0.16831776
107	0x3d911bf7	0.07085412
108	0xbe3d2c01	-0.18473817
109	0xbe0ecb33	-0.13944702
110	0x3c5ef7f4	0.013608921
111	0x3e0a4e9c	0.1350655
112	0x3dca2996	0.09871213
113	0x3e111534	0.14168245
114	0xbe4b6857	-0.19864021
115	0xbe38cc85	-0.18046768
116	0xbe6c7711	-0.23092295
117	0x3ca5b86e	0.020229544
118	0x3dd57aec	0.10423836
119	0x3d999400	0.07498932
120	0xbdcd7efd	-0.10033987
121	0x3e05cf34	0.13067323
122	0x3e170c12	0.14750698
123	0x3e18d4e0	0.14924955
124	0xbe411fef	-0.18859838
125	0xbe2190dc	-0.15777916
126	0xbd6c1044	-0.0576327
127	0xbd17f982	-0.037103184
128	0x3c32e74e	0.010919405
129	0xbe21bc63	-0.1579452
130	0x3d96833e	0.07349251
131	0x3dd51712	0.10404791
132	0xbe1139f4	-0.14182264
133	0x3e555c50	0.20835996
134	0x3c0825e0	0.008309811
135	0xbe035f99	-0.12829436
136	0xbdd368b7	-0.10322707
137	0xbe82bbc8	-0.2553389
138	0xbe361ddc	-0.17784828
139	0xbd9ad82a	-0.07560761
140	0x3e27532a	0.16340318
141	0x3e4e9d66	0.2017723
142	0x3de56737	0.11201327
143	0x3df660ec	0.12030205
144	0x3d0b7a32	0.03405208
145	0x3e3fd12b	0.18732135
146	0xbb45bd72	-0.0030172733
147	0x3d261545	0.040547628
148	0x3d9f67ad	0.077834465
149	0xbe45472c	-0.19265431
150	0xbe142e19	-0.1447071
151	0xbd9550bf	-0.07290792
152	0xbd20bd87	-0.039243247
153	0x3e354cbb	0.17705052
154	0x3c76688d	0.015039575
155	0x3dc47335	0.095922865
156	0xbdbbef05	-0.09176449
157	0xbcbd5a86	-0.023114454
158	0xbd5f9b78	-0.054591626
159	0xbd00ca7f	-0.031443115
160	0xbdcd6017	-0.10028093
161	0x3e208d5b	0.15678923
162	0x3dc051fb	0.093906365
163	0xbdee454d	-0.11634312
164	0x3e21980d	0.15780659
165	0xbe4980d5	-0.19678052
166	0x3d979bb4	0.07402745
167	0xbdf5ab39	-0.11995549
168	0x3df2a156	0.11847179
169	0x3e065173	0.13117008
170	0x3e23280b	0.15933244
171	0xbd0eef66	-0.034896277
172	0x3d09e244	0.03366305
173	0xbe63cbb9	-0.22245683
174	0x3dbd2456	0.09235446
175	0x3d90b8c9	0.07066495
176	0xbe35fb3d	-0.17771621
177	0xba67027d	-0.00088123215
178	0x3e1b9d32	0.15196684
179	0xbe3833f1	-0.17988564
180	0xbe42fdeb	-0.19042175
181	0xbd363bbd	-0.044490565
182	0x3d26b5e2	0.0407008
183	0x3e5a389b	0.21310656
184	0xbe081eb9	-0.1329297
185	0xbd8e81f2	-0.06958379
186	0xbe27aaef	-0.163738
187	0x3e13ee33	0.14446335
188	0xbe5794bb	-0.2105283
189	0x3dc73b3c	0.09728095
190	0x3df7e821	0.12104822
191	0x3d816b04	0.0631924
192	0x3e3829fd	0.17984767
193	0xbda7501a	-0.08169575
194	0xbe36bafb	-0.17844765
195	0x3e40c6f9	0.18825902
196	0x3e08ea83	0.13370709
197	0x3de456e5	0.11149386
198	0x3d1736db	0.03691755
199	0xbe40c35e	-0.18824527
200	0x3d760391	0.060061995
201	0x3d3741c7	0.044740465
202	0x3e420ea3	0.18950896
203	0xbc9abaea	-0.018887956
204	0xbd0ba9d0	-0.034097493
205	0xbd0df9a0	-0.03466189
206	0x3e21b9a1	0.15793468
207	0xbca5a6d6	-0.020221155
208	0xbd339718	-0.043845266
209	0x3e30b02e	0.17254707
210	0x3dd0550a	0.1017247
211	0xbe013d21	-0.12620975
212	0x3ddf92ca	0.1091667
213	0x3e352aa9	0.17692055
214	0x3ce3eaac	0.027821861
215	0xbd1c661a	-0.03818331
216	0xbe09841a	-0.13429299
217	0xbe772695	-0.24135812
218	0xbe25ccc1	-0.16191389
219	0x3cba85cb	0.022768876
220	0xbe18134b	-0.1485111
221	0xbe2ae599	-0.16689147
222	0xbd7cd7e7	-0.061729338
223	0xbda4a895	-0.08039967
224	0x3deae34c	0.11469135
225	0xbd8a6a16	-0.067585155
226	0xbc893f5e	-0.016753849
227	0x3ccc9ef9	0.024978148
228	0xbdcc2937	-0.099687986
229	0xbe262637	-0.16225515
230	0xbd8b31cd	-0.06796608
231	0x3e04667f	0.12929724
232	0xbe28f69a	-0.16500321
233	0xbd93c3ee	-0.07215105
234	0x3cc27891	0.023739131
235	0x3d864bf6	0.06557457
236	0xbd1c308d	-0.03813224
237	0xbdb5a371	-0.088690646
238	0x3dd99a6b	0.10625156
239	0x3db871fe	0.09006117
240	0x3e73fd79	0.23827161
241	0xbe57e3e0	-0.21083021
242	0x3d8b80cc	0.068116754
243	0x3e6ca00d	0.2310793
244	0x3e086427	0.13319455
245	0xbd0c4e07	-0.0342541
246	0x3e063354	0.13105518
247	0x3e676723	0.22597937
248	0xbdfb80a1	-0.122803934
249	0xbe1e87e9	-0.15481533
250	0x3c5d0cf5	0.013491859
251	0xbe1eb7cd	-0.15499802
252	0xbe016d54	-0.12639362
253	0xbdca77a0	-0.09886098
254	0x3e1e87a2	0.15481427
255	0xbdbecf10	-0.09316838

network.2.weight f4 [256]
0	0x3f7e2002	0.9926759
1	0x3f7fee6d	0.99973184
2	0x3f8329ed	1.024717
3	0x3f7cf81b	0.9881608
4	0x3f830a77	1.0237569
5	0x3f77923a	0.967075
6	0x3f7d2f0d	0.9889992
7	0x3f7d2e0f	0.98898405
8	0x3f7de940	0.99184036
9	0x3f7fb084	0.99878716
10	0x3f8419c9	1.0320369
11	0x3f73b31a	0.9519516
12	0x3f80d018	1.0063505
13	0x3f827415	1.0191675
14	0x3f7f28c4	0.9967158
15	0x3f7f5471	0.9973822
16	0x3f820e0a	1.0160534
17	0x3f817ae3	1.0115627
18	0x3f7fcc35	0.9992097
19	0x3f7d94bc	0.99055076
20	0x3f833998	1.0251951
21	0x3f786bf5	0.9703973
22	0x3f8158df	1.0105246
23	0x3f7c333d	0.98515683
24	0x3f81505c	1.0102649
25	0x3f798516	0.974687
26	0x3f7d22b9	0.9888111
27	0x3f814e1a	1.010196
28	0x3f800ca3	1.0003856
29	0x3f81681e	1.0109899
30	0x3f834e29	1.0258228
31	0x3f81f7c6	1.015374
32	0x3f7900a0	0.9726658
33	0x3f8223cf	1.0167178
34	0x3f83bd00	1.0292053
35	0x3f8474a6	1.0348098
36	0x3f80dd71	1.0067579
37	0x3f804985	1.0022436
38	0x3f7b3be7	0.9813828
39	0x3f82a191	1.0205556
40	0x3f760daa	0.961146
41	0x3f82d110	1.0220051
42	0x3f7a928c	0.9787986
43	0x3f810c9d	1.0081974
44	0x3f84b5be	1.0367963
45	0x3f81c770	1.0138988
46	0x3f82182b	1.0163625
47	0x3f81fdb9	1.0155555
48	0x3f816d74	1.0111527
49	0x3f7b8b34	0.9825928
50	0x3f7aedbf	0.9801902
51	0x3f8447a1	1.033436
52	0x3f844f0f	1.0336627
53	0x3f84969e	1.0358465
54	0x3f84e6b3	1.0382904
55	0x3f7e944b	0.9944503
56	0x3f7d5288	0.9895406
57	0x3f7b8987	0.98256725
58	0x3f7cdf0f	0.9877786
59	0x3f78c40c	0.97174144
60	0x3f8199c6	1.0125053
61	0x3f82f697	1.0231503
62	0x3f84046a	1.0313847
63	0x3f7d3748	0.9891248
64	0x3f7b58d8	0.9818244
65	0x3f7ca1d5	0.98684436
66	0x3f7f0df7	0.99630684
67	0x3f810197	1.007861
68	0x3f81ef6a	1.0151188
69	0x3f80ab44	1.0052266
70	0x3f826980	1.0188446
71	0x3f810a33	1.0081238
72	0x3f82e770	1.0226879
73	0x3f7a9e77	0.9789805
74	0x3f83d5e2	1.0299647
75	0x3f811171	1.0083448
76	0x3f8141b0	1.0098171
77	0x3f7ff25f	0.99979204
78	0x3f7ec615	0.99521
79	0x3f80eb0c	1.0071731
80	0x3f79d8d7	0.97596496
81	0x3f792431	0.9732085
82	0x3f8237a2	1.0173228
83	0x3f80f0c5	1.0073477
84	0x3f8263d6	1.0186718
85	0x3f7a712f	0.97828954
86	0x3f78ebb4	0.97234654
87	0x3f7f50d8	0.9973273
88	0x3f7b87cb	0.9825408
89	0x3f81b844	1.0134358
90	0x3f7cbd52	0.9872638
91	0x3f837734	1.0270753
92	0x3f81f46f	1.015272
93	0x3f7a0c3e	0.9767493
94	0x3f7c9bff	0.9867553
95	0x3f7f7397	0.9978575
96	0x3f802616	1.0011623
97	0x3f824c40	1.017952
98	0x3f826009	1.0185558
99	0x3f82228b	1.0166792
100	0x3f8391ff	1.027893
101	0x3f807e72	1.0038588
102	0x3f7a947e	0.9788283
103	0x3f813ad0	1.0096073
104	0x3f799cdc	0.97504973
105	0x3f86cba2	1.0530894
106	0x3f7d0e03	0.98849505
107	0x3f83038c	1.0235457
108	0x3f7b5b6a	0.9818636
109	0x3f7f5951	0.9974566
110	0x3f82fb33	1.023291
111	0x3f8188dc	1.0119891
112	0x3f80d3eb	1.0064672
113	0x3f804c23	1.0023235
114	0x3f800c17	1.000369
115	0x3f803bee	1.0018289
116	0x3f8054fe	1.0025938
117	0x3f7e97ca	0.9945036
118	0x3f7aaaa5	0.9791663
119	0x3f7c73c2	0.9861413
120	0x3f82ca43	1.0217975
121	0x3f7c7cc8	0.986279
122	0x3f7e4afc	0.9933317
123	0x3f8086d2	1.0041144
124	0x3f83a27c	1.0283961
125	0x3f816722	1.0109599
126	0x3f8223d6	1.0167186
127	0x3f78fa19	0.9725662
128	0x3f7f28b2	0.9967147
129	0x3f807d1a	1.0038178
130	0x3f6e2f9f	0.93041414
131	0x3f8040c3	1.0019764
132	0x3f7e898a	0.9942862
133	0x3f7bd0b6	0.9836534
134	0x3f7bc716	0.98350656
135	0x3f7a4995	0.9776853
136	0x3f7dcc2d	0.9913967
137	0x3f8145e2	1.0099452
138	0x3f7d5e2d	0.98971826
139	0x3f81e613	1.0148338
140	0x3f8107a8	1.0080462
141	0x3f8211a0	1.0161629
142	0x3f848212	1.0352194
143	0x3f7593ec	0.95928836
144	0x3f81b321	1.0132791
145	0x3f835b0e	1.0262163
146	0x3f7e3f5e	0.9931544
147	0x3f7ed6bc	0.9954641
148	0x3f82e68e	1.022661
149	0x3f8097f7	1.0046376
150	0x3f781211	0.9690257
151	0x3f840a41	1.0315629
152	0x3f7a7262	0.97830784
153	0x3f7d2876	0.98889863
154	0x3f80a2c3	1.0049671
155	0x3f7b9f0e	0.98289573
156	0x3f8008b5	1.0002657
157	0x3f74faa7	0.95694965
158	0x3f811634	1.0084901
159	0x3f813ad7	1.0096081
160	0x3f8196dd	1.0124165
161	0x3f7b8862	0.9825498
162	0x3f7959be	0.9740256
163	0x3f7fa523	0.99861354
164	0x3f855444	1.0416341
165	0x3f7f4b30	0.997241
166	0x3f787da2	0.970667
167	0x3f86a6d2	1.051966
168	0x3f7d12d7	0.9885687
169	0x3f7ca190	0.98684025
170	0x3f8366f3	1.0265793
171	0x3f7ba792	0.98302567
172	0x3f8418b6	1.0320041
173	0x3f7dc653	0.99130744
174	0x3f7e5b0c	0.99357677
175	0x3f7d71bd	0.99001676
176	0x3f79637c	0.97417426
177	0x3f82e579	1.022628
178	0x3f8079bb	1.0037149
179	0x3f7e581a	0.9935318
180	0x3f7c991e	0.9867114
181	0x3f81b662	1.0133784
182	0x3f7bf07f	0.9841384
183	0x3f80ec4b	1.0072111
184	0x3f7af0f5	0.9802392
185	0x3f79b377	0.97539467
186	0x3f789d7b	0.97115296
187	0x3f7fd3fc	0.9993284
188	0x3f814586	1.0099342
189	0x3f8163bb	1.010856
190	0x3f78b69d	0.97153646
191	0x3f803314	1.0015588
192	0x3f77b0d5	0.967542
193	0x3f7f494f	0.99721235
194	0x3f7c993c	0.9867132
195	0x3f800da5	1.0004164
196	0x3f83c1af	1.0293483
197	0x3f80c37a	1.0059655
198	0x3f791724	0.97300935
199	0x3f7f9d39	0.9984928
200	0x3f7cc291	0.98734385
201	0x3f7a3413	0.9773571
202	0x3f7dabbf	0.9909019
203	0x3f7dff86	0.9921802
204	0x3f7e338f	0.9929742
205	0x3f81d69c	1.0143619
206	0x3f7a162f	0.976901
207	0x3f7ffdfd	0.9999693
208	0x3f7f9fa5	0.99852973
209	0x3f7f5ade	0.9974803
210	0x3f78e257	0.9722037
211	0x3f7d267f	0.98886865
212	0x3f7890e0	0.9709606
213	0x3f7a458f	0.9776239
214	0x3f7fa804	0.99865746
215	0x3f7d00b6	0.9882921
216	0x3f75742e	0.958804
217	0x3f810954	1.0080972
218	0x3f78b75d	0.9715479
219	0x3f7ea12d	0.99464685
220	0x3f807028	1.0034227
221	0x3f7d39e7	0.98916477
222	0x3f807832	1.0036681
223	0x3f82d6d1	1.0221807
224	0x3f81d89a	1.0144227
225	0x3f81ce84	1.0141149
226	0x3f8337bb	1.0251383
227	0x3f808ccc	1.0042968
228	0x3f7ac1c8	0.97951937
229	0x3f7c8d36	0.9865297
230	0x3f80e825	1.0070845
231	0x3f8042fa	1.002044
232	0x3f7fee6d	0.99973184
233	0x3f82702b	1.0190481
234	0x3f7da9cf	0.9908723
235	0x3f8140b4	1.0097871
236	0x3f82066b	1.0158209
237	0x3f8352b5	1.0259615
238	0x3f840111	1.0312825
239	0x3f808079	1.0039207
240	0x3f7f63fc	0.9976194
241	0x3f800085	1.0000159
242	0x3f818423	1.011845
243	0x3f7b11cc	0.9807403
244	0x3f7e0bf4	0.9923699
245	0x3f80d8e5	1.0066191
246	0x3f7fc573	0.9991066
247	0x3f7fcaf1	0.9991904
248	0x3f8370b8	1.0268774
249	0x3f7c494d	0.9854935
250	0x3f7934e4	0.9734633
251	0x3f7feed9	0.9997383
252	0x3f7f39bf	0.9969749
253	0x3f81286a	1.0090458
254	0x3f7c3101	0.98512274
255	0x3f7ec89d	0.9952486

network.2.bias f4 [256]
0	0x3bd0dd27	0.0063740197
1	0x38499618	4.806192e-05
2	0xbc3bc42a	-0.011460343
3	0x3cebd890	0.028789788
4	0xbd1d5d46	-0.03841903
5	0xbcde2801	-0.027118685
6	0xbc912282	-0.01771665
7	0x3c9e3e36	0.019316774
8	0x3c023873	0.007948029
9	0x3a2e2a96	0.0006643919
10	0x3c09b7f5	0.008405675
11	0xbbd255fb	-0.006418941
12	0x3b9f6122	0.004863874
13	0xbc546cb6	-0.012965372
14	0x3bac7286	0.0052626757
15	0xbba13a64	-0.004920291
16	0xbc12ab82	-0.008952023
17	0xbb7f214c	-0.0038929759
18	0x3c4d3c5a	0.012526596
19	0xbd00a25a	-0.03140483
20	0x3a8dde6e	0.0010823736
21	0x3b20ab4c	0.0024516163
22	0x3d1b38e0	0.037896037
23	0x3b1cae28	0.0023907516
24	0x3c0c8ef5	0.0085790055
25	0xbc8ab832	-0.016933534
26	0x3b830a96	0.0039990647
27	0xbc1c83cd	-0.009552908
28	0xbd4939e4	-0.049127474
29	0x3c845813	0.016155278
30	0xbc47e758	-0.012201153
31	0x3d065828	0.032798916
32	0xbc6b6065	-0.014366244
33	0xbc0b4734	-0.008500863
34	0xbbdb922e	-0.0067007756
35	0x3bf99eaf	0.0076177935
36	0x3b560411	0.0032656232
37	0x3b54129d	0.0032359727
38	0xbc0187de	-0.007905928
39	0xbcc9a7c8	-0.024616137
40	0xbc1d1abb	-0.009588893
41	0x3c372c0b	0.011179934
42	0x3a0f37d0	0.0005463334
43	0xbca2edfb	-0.019888869
44	0x3d416d46	0.047223352
45	0x391c2ff6	0.00014895186
46	0xbbb3c2bc	-0.0054858606
47	0xbc9b4db3	-0.018957948
48	0xbc76fd21	-0.015074999
49	0xbc30dd3d	-0.010794935
50	0x3cc473b6	0.023980957
51	0xbc535b46	-0.012900179
52	0xbc3bfcd0	-0.011473849
53	0xbc3bf95b	-0.011473025
54	0x3d3277a0	0.043571115
55	0xbcd63dd8	-0.026152536
56	0x3b8825ad	0.004154882
57	0x3bb240a4	0.0054398347
58	0xbc8346a3	-0.016024893
59	0xbbc029d1	-0.00586436
60	0x3b82e718	0.0039948337
61	0x3a5a6fba	0.00083326886
62	0xbae80e9e	-0.0017704552
63	0xbb66f583	-0.0035241551
64	0xbc2c5057	-0.010517201
65	0xbc442a6e	-0.011973007
66	0xbbf15d1d	-0.0073658363
67	0xbcb27a1c	-0.021786742
68	0x3d1ec005	0.038757343
69	0x3cabab68	0.020955756
70	0x3bdb8c26	0.0067000566
71	0x3c2eb879	0.010664099
72	0x3b58a76f	0.0033058783
73	0x3c04ce2c	0.008105796
74	0xbc8f3a8d	-0.017483974
75	0xbc3b4bf9	-0.0114316875
76	0xbc3dde16	-0.011588594
77	0x3cdce60b	0.026965162
78	0xbc31062d	-0.010804695
79	0x3c71615e	0.014732687
80	0x3c9c0951	0.019047411
81	0x3c413513	0.011792439
82	0x3c4a46af	0.012345954
83	0xbc58af27	-0.013225353
84	0x3c5c495b	0.013445224
85	0xbcd60d4d	-0.02612939
86	0x3a8aa339	0.0010577209
87	0xbd23f676	-0.040029965
88	0xbbb06272	-0.0053828293
89	0x3c834164	0.016022392
90	0xbc0b6063	-0.008506867
91	0x3c656d2b	0.014003078
92	0xbc36a338	-0.011147313
93	0xbb7a5bac	-0.0038201613
94	0xbc922d37	-0.017843826
95	0x3cc5f877	0.024166329
96	0xbc421ba6	-0.011847412
97	0xbc017d21	-0.007903368
98	0xbc0d85be	-0.008637844
99	0x3c868ff3	0.016426062
100	0x3b9a5e22	0.0047109285
101	0xbc9bb91d	-0.019009167
102	0xbc69be4e	-0.014266564
103	0xbc7bf0d2	-0.01537724
104	0x3b9794df	0.004625901
105	0x3b21fc3d	0.0024716996
106	0x3c6dfe45	0.014525955
107	0xbca4c381	-0.020112755
108	0x3cc40063	0.023925966
109	0x3b5b58a2	0.0033469577
110	0x3ae0c502	0.0017148557
111	0xbc8a793e	-0.016903516
112	0xbd1fa8d7	-0.038979378
113	0x38c2839c	9.275155e-05
114	0x39ac8c4f	0.00032910935
115	0xbc54ae58	-0.01298102
116	0x3d14525c	0.036211357
117	0xbbb0b932	-0.0053931708
118	0x3ba8e415	0.0051541426
119	0xbc65827f	-0.0140081635
120	0x3c5512cf	0.013004973
121	0xbb0ce592	-0.002149914
122	0x3c57a935	0.013162901
123	0xbc1d64b3	-0.009606528
124	0xbd5db8bb	-0.05413125
125	0xbb9ded4a	-0.004819547
126	0xbc1dea55	-0.009638389
127	0x3c94ec3f	0.018179057
128	0x3cd94f31	0.02652702
129	0xba5a529f	-0.00083283515
130	0x3ca03fce	0.019561674
131	0xbc8482b7	-0.016175611
132	0x3d2c0de5	0.04200544
133	0x3c2996b9	0.0103508765
134	0x3c87f586	0.016596567
135	0xbcbbada1	-0.022909941
136	0xbaf37120	-0.0018573143
137	0x3c3789b3	0.011202264
138	0xbb59f282	-0.0033256118
139	0xbd20a42c	-0.039219067
140	0x3d1df44d	0.03856306
141	0x3cdad0e3	0.026710933
142	0xbc1f8958	-0.009737335
143	0x3cfd7b6c	0.030942641
144	0x3b5b5c17	0.0033471638
145	0x3cd52c62	0.02602214
146	0x3ccc6ddc	0.024954729
147	0x3c85d830	0.016338438
148	0x3b6a5b13	0.003575985
149	0x3c70c193	0.014694589
150	0xbd03c327	-0.032168534
151	0x3ccb13f6	0.024789792
152	0x3cd43e54	0.025908627
153	0x3c88c694	0.016696252
154	0xba07b420	-0.0005176682
155	0xbcce585f	-0.025188623
156	0xbc0b2393	-0.008492368
157	0xbb33272e	-0.0027336585
158	0xbc06ea98	-0.008234642
159	0x3b65c7dc	0.0035061752
160	0xbc14fe4c	-0.009093832
161	0xbbd2745f	-0.006422564
162	0x3c7c352c	0.015393537
163	0xbc3f8093	-0.011688369
164	0x3c6b9823	0.014379534
165	0xbd83e75b	-0.06440612
166	0xbb2a6934	-0.0026002647
167	0xbd220d7c	-0.03956364
168	0x3c83039b	0.01599293
169	0x3bc09614	0.0058772657
170	0xbc8e7be7	-0.017393066
171	0x3bec3910	0.007208951
172	0xbb833215	-0.004003773
173	0xbbcee435	-0.0063138255
174	0x3b938af4	0.0045026485
175	0xbbc8ee46	-0.00613192
176	0xbbdbdc11	-0.0067095836
177	0x3c5e05ed	0.0135512175
178	0x3c37f272	0.011227237
179	0x3b69ae48	0.0035656858
180	0x3d17ac0f	0.037029322
181	0xbcf1e8e3	-0.029529994
182	0xbbec8989	-0.007218544
183	0x3be1093a	0.006867555
184	0xbb814ba9	-0.003945787
185	0xbb82dabe	-0.0039933613
186	0x3c273d6a	0.010207513
187	0x3cdb4209	0.026764886
188	0x3c95670f	0.018237619
189	0xbc3d688b	-0.0115605695
190	0xbcdc30f5	-0.026878813
191	0xbb3fd6d3	-0.0029272332
192	0xbc258412	-0.010102289
193	0x3c18855b	0.009309138
194	0x3c81cfec	0.015846215
195	0xbc634f3f	-0.013873874
196	0x3b6d5a53	0.0036217168
197	0x3d338305	0.04382612
198	0x3c8b9e49	0.01704325
199	0xbc41a186	-0.011818295
200	0x3abe22a6	0.0014506176
201	0xbc017aa2	-0.007902773
202	0xbc197ebc	-0.009368595
203	0x3c57da9d	0.01317468
204	0xbc526e38	-0.012843661
205	0x3baa17b0	0.005190812
206	0xbca172ae	-0.019708004
207	0xbc130f72	-0.00897585
208	0x3ac416f6	0.0014960456
209	0x3c027eed	0.007964832
210	0xbca6bf1e	-0.020354804
211	0x3ba2da59	0.0049698767
212	0xbc77b49b	-0.015118743
213	0x3cb1361c	0.021632247
214	0x3bc879d0	0.006118037
215	0x3cb3ccc1	0.02194822
216	0xbc9874b0	-0.018610328
217	0xbb42ec1c	-0.0029742783
218	0x3af03bd4	0.0018328377
219	0x3b100f98	0.002198195
220	0xbcfb96e4	-0.030711599
221	0x3c7dac6e	0.015483005
222	0xbc9f10dd	-0.01941722
223	0x3d0226f0	0.031775415
224	0x3afb55f8	0.0019175401
225	0x3b7ea16b	0.0038853537
226	0x3bc497d1	0.0059995432
227	0x3b598278	0.0033189338
228	0xbaf56b30	-0.0018723961
229	0x3b769aca	0.0037628883
230	0x3d427738	0.047476977
231	0xbc08eb66	-0.008356905
232	0x3c16eaad	0.0092112245
233	0xbc2887cc	-0.010286283
234	0xbc41760a	-0.011807928
235	0x3c169059	0.009189689
236	0xbba2f4c7	-0.0049730274
237	0xbc95d35d	-0.018289262
238	0xbca258d2	-0.019817743
239	0x3ca379bd	0.01995551
240	0xbc221222	-0.0098920185
241	0x3c30bf71	0.010787831
242	0xbcd3070d	-0.025760198
243	0x39f7e341	0.0004728083
244	0x3bfba029	0.0076790047
245	0x3cc51edb	0.024062565
246	0x3c550bdd	0.013003317
247	0xbc6ca5f2	-0.014443861
248	0xbc87e9cc	-0.016590975
249	0x3cb04752	0.021518383
250	0xbc8fd8d4	-0.017559446
251	0x3ce71ea0	0.028212845
252	0x3cfc1ea4	0.03077633
253	0xbc755294	-0.014973301
254	0x3d02e5e7	0.031957533
255	0x3c89cc04	0.016820915

network.2.running_mean f4 [256]
0	0x3e80680a	0.25079376
1	0x3e80e19d	0.2517213
2	0x3e34f6a7	0.17672215
3	0x3dd5980e	0.10429393
4	0x3e0f51a2	0.13995984
5	0x3e5a1636	0.21297535
6	0x3e96b246	0.29432887
7	0x3e9d3ddd	0.3071126
8	0x3da08e59	0.07839651
9	0x3e902c59	0.28158835
10	0x3e11072e	0.14162895
11	0x3e48a7a6	0.19595203
12	0x3e2ebc8a	0.1706411
13	0x3e2f4b39	0.17118539
14	0x3e446e53	0.1918271
15	0x3e45165f	0.19246815
16	0x3eab36b2	0.33440167
17	0x3e24e496	0.16102824
18	0x3e7128b0	0.23550677
19	0x3e195814	0.14975005
20	0x3d88cabb	0.06679293
21	0x3eb2488b	0.3482097
22	0x3e1afe44	0.15136057
23	0x3ea73186	0.3265497
24	0x3e7a7f1f	0.24462555
25	0x3e09515a	0.1340994
26	0x3e2a857d	0.16652484
27	0x3e6c7ae6	0.23093757
28	0x3dc4b191	0.096041806
29	0x3e6a34ab	0.22871654
30	0x3e31376c	0.17306298
31	0x3e78c5f7	0.24294268
32	0x3e86484b	0.2622703
33	0x3e8f7cac	0.28024805
34	0x3e48ec9b	0.19621508
35	0x3e98e00a	0.29858428
36	0x3e015ed0	0.12633824
37	0x3e231e34	0.1592949
38	0x3ec56986	0.3855707
39	0x3e4b4f20	0.19854403
40	0x3e6b9a18	0.23008001
41	0x3e577c3e	0.21043488
42	0x3e95cbc7	0.29257032
43	0x3e8ed19f	0.27894303
44	0x3eac414e	0.33643574
45	0x3e858a7d	0.2608222
46	0x3e2adb28	0.16685164
47	0x3e567da4	0.20946366
48	0x3ee547fb	0.4478148
49	0x3e2e9372	0.17048433
50	0x3e88e5a7	0.2673771
51	0x3eb1efaa	0.34753162
52	0x3e3c3837	0.1838082
53	0x3e0df7db	0.1386408
54	0x3dd088c6	0.101823375
55	0x3e76b636	0.24092945
56	0x3eb7d7b2	0.3590675
57	0x3df7c1bc	0.12097499
58	0x3e0e27bc	0.13882345
59	0x3ebad454	0.36490119
60	0x3e865af2	0.2624126
61	0x3eb78dd9	0.3585041
62	0x3dc92e06	0.098232314
63	0x3e1dc1fc	0.1540603
64	0x3e8a5503	0.27017984
65	0x3eb688b9	0.35651186
66	0x3e4045d8	0.18776643
67	0x3ed4655e	0.41483587
68	0x3e4d67b9	0.20059098
69	0x3e1219c7	0.14267646
70	0x3e84b96b	0.25922713
71	0x3ec4a69e	0.3840837
72	0x3e73a081	0.23791696
73	0x3e5295a4	0.20564896
74	0x3ea938fd	0.3305129
75	0x3eb44886	0.3521158
76	0x3e87f352	0.26552826
77	0x3e5db7fe	0.21652219
78	0x3eb04872	0.3443027
79	0x3dfc8fbe	0.12332104
80	0x3e30f628	0.17281401
81	0x3e223f79	0.15844525
82	0x3e0b0346	0.13575467
83	0x3ebbbb8b	0.3666652
84	0x3e84aa35	0.25911108
85	0x3ea8e970	0.329906
86	0x3ee4df86	0.44701785
87	0x3e174a49	0.14774431
88	0x3e0edb8c	0.13950938
89	0x3e7a4a92	0.24442509
90	0x3e1950df	0.14972256
91	0x3e7df02a	0.24798647
92	0x3e2f7ff9	0.17138661
93	0x3e80303f	0.2503681
94	0x3e5e3d76	0.21703133
95	0x3ea7bc09	0.32760647
96	0x3e661636	0.2246941
97	0x3e78a472	0.24281481
98	0x3ec88b90	0.39168978
99	0x3e041073	0.128969
100	0x3e2970ab	0.16546886
101	0x3e4e2d86	0.20134553
102	0x3eab1864	0.33417046
103	0x3e88f484	0.2674905
104	0x3e85dace	0.26143497
105	0x3e353497	0.17695843
106	0x3dad32c5	0.08456949
107	0x3e9766cc	0.29570615
108	0x3dbf542d	0.09342227
109	0x3e066ec6	0.13128194
110	0x3e7f1e7a	0.2491397
111	0x3ec10ca2	0.3770495
112	0x3e911fe1	0.28344634
113	0x3eae33bd	0.34023848
114	0x3e39c9f4	0.18143445
115	0x3e0ecb3c	0.13944715
116	0x3e360580	0.17775536
117	0x3e73eaee	0.23820087
118	0x3ee50023	0.44726667
119	0x3eb18fad	0.34679928
120	0x3e2178c5	0.15768726
121	0x3e92e522	0.2869044
122	0x3eaaed5a	0.3338421
123	0x3ead3d18	0.33835673
124	0x3e5fb73a	0.21847239
125	0x3de999fe	0.11406325
126	0x3e61c476	0.220476
127	0x3e391310	0.18073678
128	0x3e69b397	0.22822414
129	0x3df2133e	0.118200764
130	0x3e963891	0.29340032
131	0x3e89cd82	0.26914603
132	0x3df36f74	0.11886492
133	0x3ea4e72f	0.3220763
134	0x3eb3d8dd	0.3512639
135	0x3dd5f1e8	0.104465306
136	0x3e13338c	0.14375132
137	0x3d8e7dc5	0.069575824
138	0x3e088e35	0.13335498
139	0x3e2c980e	0.1685488
140	0x3ea70a72	0.32625157
141	0x3ea377e3	0.31927404
142	0x3eaaf9c4	0.3339368
143	0x3e9ae09d	0.3024949
144	0x3e5b3c18	0.21409643
145	0x3ed37ab9	0.41304567
146	0x3e63fbec	0.2226407
147	0x3e99d247	0.3004324
148	0x3e89532a	0.26821262
149	0x3e12f3b4	0.14350778
150	0x3e50c05f	0.20385884
151	0x3e7f60ce	0.24939272
152	0x3e378e8d	0.17925473
153	0x3e8b672b	0.27227148
154	0x3e751549	0.23933901
155	0x3e94c13b	0.29053673
156	0x3e48d8fc	0.19614023
157	0x3e4b80cd	0.19873352
158	0x3e2e935f	0.17048405
159	0x3e79dfb9	0.2440175
160	0x3e2e33e5	0.17011984
161	0x3e859ba8	0.2609532
162	0x3ea21c1e	0.31662077
163	0x3e77856a	0.24171987
164	0x3ea2d7c5	0.31805244
165	0x3e0149b4	0.12625772
166	0x3e7d1198	0.24713743
167	0x3e2f2b7b	0.1710643
168	0x3eba9f1a	0.3644951
169	0x3e9355e9	0.28776482
170	0x3e871f28	0.26390958
171	0x3e9b01d5	0.30274835
172	0x3e81f35b	0.25380978
173	0x3dc5356e	0.096293315
174	0x3e54d283	0.20783429
175	0x3e72488a	0.23660484
176	0x3e01dd64	0.1268211
177	0x3e4b0e3a	0.19829646
178	0x3e8373fa	0.2567442
179	0x3e29d9e0	0.16587019
180	0x3e8904e2	0.26761538
181	0x3e735629	0.23763336
182	0x3e7cf4a9	0.24702705
183	0x3ebb47c3	0.36578187
184	0x3e761742	0.2403231
185	0x3e4e8a60	0.20169973
186	0x3e207d0c	0.15672702
187	0x3e96b209	0.29432705
188	0x3e4cda9b	0.20005266
189	0x3e799b62	0.2437568
190	0x3eba8f3d	0.36437407
191	0x3e9113bc	0.2833537
192	0x3ea0ad73	0.3138233
193	0x3e35f0f1	0.17767693
194	0x3de6421a	0.112430766
195	0x3ea24e4a	0.31700355
196	0x3e9d2ac9	0.30696705
197	0x3e7be734	0.24599916
198	0x3e835a8c	0.2565502
199	0x3e2af7de	0.16696116
200	0x3edc8a6d	0.4307436
201	0x3e869d1d	0.26291743
202	0x3e978976	0.29597062
203	0x3e75a887	0.2399007
204	0x3e8e67dd	0.27813616
205	0x3e0c3f2a	0.1369597
206	0x3ed9dde4	0.42552102
207	0x3e82e3a4	0.255643
208	0x3ec6ffbe	0.3886699
209	0x3f0602d8	0.5234809
210	0x3e86d771	0.26336244
211	0x3e052c61	0.1300521
212	0x3e8d3054	0.27575934
213	0x3ebdf343	0.37099656
214	0x3e68d061	0.2273574
215	0x3e3c1236	0.18366322
216	0x3e274abb	0.16337101
217	0x3e23b43b	0.15986721
218	0x3ec03dac	0.37547052
219	0x3e716a79	0.23575772
220	0x3e007d52	0.12547806
221	0x3e15db83	0.14634518
222	0x3e6cf49d	0.23140188
223	0x3ebce5d8	0.36894107
224	0x3e96a924	0.2942592
225	0x3e0ec532	0.13942412
226	0x3e915a34	0.28389132
227	0x3e5c132d	0.2149169
228	0x3e1af57d	0.15132709
229	0x3e4aac6f	0.1979234
230	0x3e2fc589	0.17165197
231	0x3e8d0eb4	0.2755028
232	0x3dacf0d2	0.0844437
233	0x3e475a80	0.19468117
234	0x3e9a69bd	0.30158797
235	0x3e8aef1a	0.27135545
236	0x3e617964	0.22018963
237	0x3e3554f8	0.17708194
238	0x3e8c1866	0.27362365
239	0x3e7fe466	0.24989471
240	0x3ec71811	0.3888555
241	0x3e2d6449	0.16932787
242	0x3e5f0f67	0.2178322
243	0x3ecc35a0	0.39884663
244	0x3e9b69fa	0.3035429
245	0x3e78a3eb	0.2428128
246	0x3e80ad36	0.2513215
247	0x3ed09d75	0.4074513
248	0x3e2ff51e	0.17183349
249	0x3e0e08c2	0.13870528
250	0x3e36ad5c	0.17839569
251	0x3db1dd45	0.08684782
252	0x3e3fb1e5	0.18720205
253	0x3e24f975	0.16110785
254	0x3e90aba5	0.28255954
255	0x3e476e4d	0.1947567

network.2.running_var f4 [256]
0	0x3dd887dd	0.10572789
1	0x3dd1487d	0.10218904
2	0x3d91b3a1	0.071143396
3	0x3d1492e0	0.036272883
4	0x3d736cc8	0.059429914
5	0x3dd1dba6	0.10246973
6	0x3e077ec5	0.13231952
7	0x3e2e328d	0.17011471
8	0x3cd4cb69	0.0259759
9	0x3e0c83c7	0.13722144
10	0x3d9acefa	0.07559009
11	0x3e05d3ef	0.13069128
12	0x3daec355	0.085333504
13	0x3dad88d0	0.084733605
14	0x3ddf213d	0.108950116
15	0x3e0de15d	0.138555
16	0x3e6b0776	0.22952065
17	0x3dba1ca4	0.09087494
18	0x3ddc1bff	0.10747527
19	0x3d7c56fd	0.061606396
20	0x3ca9868a	0.020694036
21	0x3e59349e	0.21211478
22	0x3d783f87	0.06060746
23	0x3e0bff11	0.13671519
24	0x3df141ba	0.117801145
25	0x3d502422	0.05081571
26	0x3d6dec27	0.05808654
27	0x3dcb7ab5	0.09935514
28	0x3d2091dd	0.039201606
29	0x3dbf74fc	0.09348485
30	0x3da6a49f	0.08136868
31	0x3dea6544	0.11445096
32	0x3dce1be9	0.10063917
33	0x3e1d46b5	0.15359004
34	0x3dc19b7e	0.09453486
35	0x3dee687b	0.11641022
36	0x3d77799e	0.060418718
37	0x3da131c1	0.07870818
38	0x3e9532b3	0.29140243
39	0x3dc8cdd9	0.09804887
40	0x3dfd9991	0.12382806
41	0x3d993070	0.07479942
42	0x3e301a30	0.1719749
43	0x3e09c216	0.13452944
44	0x3e30563e	0.17220399
45	0x3e273d5f	0.16332005
46	0x3d8df22e	0.06930958
47	0x3dc5d2ba	0.096593335
48	0x3e98b18a	0.29822952
49	0x3d89f288	0.06735712
50	0x3df679a7	0.12034922
51	0x3e8ee039	0.27905443
52	0x3d6de692	0.058081217
53	0x3d8c48e6	0.06849842
54	0x3d1f4a06	0.038888954
55	0x3df00494	0.11719623
56	0x3e2d8f0e	0.16949102
57	0x3d6d7c48	0.057979852
58	0x3da448b1	0.08021677
59	0x3e220e27	0.15825711
60	0x3e01cde3	0.12676196
61	0x3e592d84	0.21208769
62	0x3d063c16	0.032772146
63	0x3d7658ae	0.060143165
64	0x3dd7497d	0.10512064
65	0x3e1b1c73	0.15147571
66	0x3daa7b53	0.083243035
67	0x3e7a23cf	0.24427722
68	0x3dbaeed4	0.09127584
69	0x3d7a6733	0.061133575
70	0x3e3d7069	0.18499912
71	0x3e6da5e1	0.23207809
72	0x3dd7e866	0.10542373
73	0x3d8d31ba	0.0689425
74	0x3e6167f5	0.22012313
75	0x3dedd5b2	0.11613025
76	0x3e3a2b60	0.18180609
77	0x3dc8d368	0.098059475
78	0x3e1f06c9	0.15529932
79	0x3d15cb0d	0.036570597
80	0x3d8a3a7b	0.067494355
81	0x3d899eb0	0.0671972
82	0x3d6ec63c	0.05829452
83	0x3e343231	0.17597272
84	0x3e04f775	0.12985022
85	0x3e1cd9ee	0.15317509
86	0x3e9bc3c7	0.30422804
87	0x3d83f7ee	0.06443773
88	0x3d8715f1	0.06595982
89	0x3e0e1396	0.13874659
90	0x3d865457	0.06559055
91	0x3de32697	0.11091345
92	0x3dae5e15	0.085140385
93	0x3dc22090	0.09478867
94	0x3df7cc5e	0.12099527
95	0x3e49ba5b	0.19699995
96	0x3dcded84	0.10055068
97	0x3e04eb54	0.12980396
98	0x3e81c396	0.25344533
99	0x3d91d4f1	0.071206935
100	0x3d9ac3f2	0.07556905
101	0x3dfe07ef	0.12403857
102	0x3e553dba	0.20824328
103	0x3df90a15	0.12160126
104	0x3e2dd68c	0.16976374
105	0x3d8e24ad	0.06940589
106	0x3cf1fc2b	0.029539188
107	0x3e0dacbc	0.13835424
108	0x3cd3411e	0.025787886
109	0x3d5b24e9	0.053501997
110	0x3e030b64	0.12797314
111	0x3e683652	0.22676972
112	0x3e1676fc	0.14693826
113	0x3e29689a	0.16543809
114	0x3de11b26	0.10991506
115	0x3d86d38b	0.06583317
116	0x3db198e2	0.08671738
117	0x3e0ed0b4	0.13946801
118	0x3e930272	0.28712803
119	0x3e98f58f	0.29874846
120	0x3d76bbfc	0.06023787
121	0x3e077934	0.13229829
122	0x3e28b328	0.16474593
123	0x3e2d505b	0.16925184
124	0x3e10e017	0.14147983
125	0x3d49b060	0.04924047
126	0x3df0b215	0.117527165
127	0x3d91469d	0.070935465
128	0x3dd82339	0.10553593
129	0x3d46e1fd	0.048555363
130	0x3e2426b9	0.16030397
131	0x3dffe7be	0.12495373
132	0x3d47ccf4	0.048779443
133	0x3e0fe7d7	0.14053284
134	0x3e644ebd	0.22295661
135	0x3d1527d0	0.03641492
136	0x3d955c6a	0.07293017
137	0x3ca6ebf4	0.020376183
138	0x3d7d484b	0.061836522
139	0x3da3f9d3	0.080066346
140	0x3e0b33e7	0.13594018
141	0x3dfe2f37	0.12411349
142	0x3e454c3b	0.19267361
143	0x3e29286e	0.16519329
144	0x3da49f64	0.08038214
145	0x3e9b740e	0.3036198
146	0x3df64c25	0.12026242
147	0x3e195769	0.1497475
148	0x3e03d60d	0.12874623
149	0x3d92e21c	0.07172033
150	0x3def3f05	0.11681942
151	0x3e1da267	0.15393983
152	0x3d9c869b	0.076428615
153	0x3dbbb294	0.091649204
154	0x3df00ede	0.11721586
155	0x3e233a70	0.15940261
156	0x3dda4027	0.10656767
157	0x3d9fc47b	0.078011476
158	0x3d8739bc	0.06602809
159	0x3e02c2ce	0.12769625
160	0x3d7dce84	0.061964527
161	0x3ddebb43	0.10875561
162	0x3e246787	0.16055118
163	0x3e2132da	0.15742055
164	0x3dd96829	0.1061557
165	0x3d67a5e4	0.05655469
166	0x3deab85b	0.11460944
167	0x3dc1a48f	0.09455215
168	0x3e6b05b9	0.22951402
169	0x3e0e4854	0.13894778
170	0x3dd353c7	0.10318714
171	0x3e57f24b	0.21088521
172	0x3de55e3f	0.11199617
173	0x3d148255	0.036257107
174	0x3d9fbb1c	0.0779936
175	0x3dd18fce	0.10232507
176	0x3d5b4ffe	0.053543083
177	0x3db8d08e	0.09024154
178	0x3db114ce	0.08646546
179	0x3d90cea5	0.07070664
180	0x3e406b07	0.18790828
181	0x3e16b7ac	0.14718503
182	0x3ddaf7bb	0.10691782
183	0x3e2613fe	0.16218564
184	0x3e1e3e2e	0.15453407
185	0x3d9b4adf	0.0758264
186	0x3d924598	0.0714218
187	0x3e05bded	0.13060732
188	0x3dfb56de	0.12272428
189	0x3dae5d32	0.08513869
190	0x3e21fdc5	0.15819462
191	0x3e058603	0.13039403
192	0x3e1a6f9a	0.15081635
193	0x3da22c06	0.07918553
194	0x3d3acd31	0.045605842
195	0x3e0009c6	0.12503728
196	0x3e051b68	0.12998736
197	0x3dbea855	0.093094505
198	0x3df6b16b	0.120455585
199	0x3da843ca	0.08216055
200	0x3eb0a580	0.34501266
201	0x3df1aae9	0.11800177
202	0x3ded8c1c	0.11598989
203	0x3e13edc8	0.14446175
204	0x3e1ed13b	0.15509503
205	0x3d363021	0.044479493
206	0x3e80670d	0.25078622
207	0x3dfad7fc	0.12248227
208	0x3eaf521b	0.3424233
209	0x3edb66a0	0.42851734
210	0x3deaa90c	0.114580244
211	0x3d669220	0.0562917
212	0x3dfcd68d	0.1234561
213	0x3e4d3380	0.20039177
214	0x3df8b740	0.12144327
215	0x3da80d5c	0.08205673
216	0x3dba8ac4	0.09108499
217	0x3dac6410	0.08417523
218	0x3ec24512	0.3794332
219	0x3dd4e716	0.10395639
220	0x3d2469c6	0.040139936
221	0x3d96e7d8	0.073684394
222	0x3de6779f	0.11253285
223	0x3e8dd19d	0.27698985
224	0x3e0c33a2	0.13691571
225	0x3d5dda43	0.05416323
226	0x3e25bb41	0.16184713
227	0x3dda3406	0.10654454
228	0x3d9881dc	0.07446644
229	0x3de3b966	0.11119346
230	0x3d8e63f9	0.06952662
231	0x3ddb400a	0.10705574
232	0x3cd1ec51	0.02562538
233	0x3dac71c8	0.084201396
234	0x3e34cef3	0.1765707
235	0x3e040900	0.12894058
236	0x3dccf508	0.100076735
237	0x3da386f8	0.079847276
238	0x3deead37	0.11654132
239	0x3dc5e3f8	0.09662622
240	0x3e259f0a	0.1617395
241	0x3dc6064f	0.09669172
242	0x3db4a931	0.08821333
243	0x3e4836ee	0.19552204
244	0x3e1337af	0.1437671
245	0x3e17a84a	0.14810291
246	0x3db0f54e	0.08640538
247	0x3e6c9d28	0.23106825
248	0x3dac1a02	0.08403398
249	0x3d5df156	0.054185234
250	0x3d8321dd	0.06402943
251	0x3ce23cc4	0.027616866
252	0x3dec26c8	0.115308344
253	0x3d8dfb3f	0.06932687
254	0x3deeac1a	0.116539195
255	0x3dba90ae	0.09109627

network.4.weight f4 [128, 256]
0	0xbd976683	-0.073925994
1	0x3cdfb1b2	0.027306411
2	0xbb206e26	-0.0024479716
3	0xbc59dcb1	-0.013297246
4	0x3d5f27e3	0.0544814
5	0x3d4cdcd3	0.050015282
6	0xbcac8f21	-0.021064343
7	0x3d267961	0.0406431
8	0x3beaa984	0.007161321
9	0x3cd8a7a5	0.026447127
10	0x3ca6568b	0.020304939
11	0x3ce9a963	0.028523153
12	0x3c8e3698	0.017360017
13	0xbbf5c6a4	-0.0075004864
14	0x3c9d2639	0.019183265
15	0xbd477ad2	-0.048701115
16	0xbd50766e	-0.050894193
17	0xbd9653a7	-0.07340174
18	0xbd0a0cf5	-0.033703763
19	0x3cc9d629	0.024638252
20	0x39b933fd	0.00035324684
21	0x3d38076b	0.04492895
22	0x3d4a4fbf	0.049392458
23	0xbc93baf2	-0.018033478
24	0xbd7a087e	-0.061043255
25	0x3d12e8e4	0.035866633
26	0x3c3178b2	0.010831999
27	0xbbb9de84	-0.005672278
28	0x3c96841e	0.018373545
29	0xbc8e39eb	-0.017361602
30	0x3c1646fe	0.009172199
31	0xbd010f55	-0.031508762
32	0xbbfe48d3	-0.007760146
33	0x3c8426b4	0.016131736
34	0x3c852cf1	0.016256781
35	0x3e0a114c	0.1348316
36	0xbcf04d9a	-0.029333878
37	0xbc169ae5	-0.009192203
38	0x3acd2bab	0.0015653273
39	0xbb8fe3ca	-0.0043911682
40	0x3d384542	0.044987924
41	0xbd13dc0a	-0.036098517
42	0xbd04fcec	-0.032467768
43	0xbce78805	-0.028263101
44	0xbd4b4820	-0.04962933
45	0xbd561a8a	-0.052271403
46	0xbcaf1371	-0.021371575
47	0x3b9e0add	0.0048230723
48	0x3d6e80f1	0.058228437
49	0x3d643688	0.055716068
50	0x3b636991	0.0034700374
51	0xbb816f53	-0.0039500385
52	0xbcc4e6d9	-0.024035858
53	0xbcab52c5	-0.020913491
54	0x3d58348b	0.052784484
55	0xbce56929	-0.028004246
56	0xbca14781	-0.019687416
57	0x3d293316	0.041308485
58	0xba9d8453	-0.0012017585
59	0x3d2aa562	0.041661628
60	0x3d1ba5c6	0.03799989
61	0x3d5458d4	0.051842526
62	0xbcb2a975	-0.021809319
63	0x3ce1c380	0.027559042
64	0xb986a4ec	-0.00025681348
65	0xbd048d5d	-0.032361377
66	0x3c4a6e0a	0.012355337
67	0x3a5cfa69	0.0008429648
68	0xbd39e98c	-0.045388743
69	0xbd4ef944	-0.050530687
70	0xbdbda71c	-0.09260389
71	0xbc137d8f	-0.0090021035
72	0x3caed922	0.021343771
73	0x3c58136a	0.013188222
74	0x3c90507a	0.0176165
75	0x3b835f43	0.004009159
76	0x3b8211f6	0.0039694263
77	0x3b1a2ee2	0.002352648
78	0x3d93ee0a	0.07223137
79	0xbc28f56e	-0.010312421
80	0xbd3f602b	-0.046722572
81	0xbd007d80	-0.031369686
82	0x3d9af73e	0.07566689
83	0xbc07fcc8	-0.008300014
84	0xbd54bc83	-0.05193759
85	0x3d4f8b4d	0.050669957
86	0x3cec248d	0.028826023
87	0x3d1d2429	0.038364563
88	0x3d309fd8	0.04312119
89	0x3c260096	0.010131976
90	0x3ba222a2	0.004947976
91	0x3d027414	0.031848982
92	0xbd7c49df	-0.061593886
93	0x3bc0be81	0.005882085
94	0xbd1e5c2d	-0.038662124
95	0xbd82a774	-0.063795954
96	0xbc2c2e84	-0.010509137
97	0x3c8db087	0.017296089
98	0xbcec701a	-0.028862048
99	0xbd8ef9b4	-0.06981221
100	0xbc019896	-0.0079099145
101	0xbd5afa1b	-0.053461175
102	0x3d890c34	0.06691781
103	0x3ba6667d	0.0050781355
104	0x3a5813c8	0.0008242694
105	0x3d102581	0.035192017
106	0xbd5b9aa8	-0.05361429
107	0xbcfcb28d	-0.030846858
108	0x3d128370	0.03576988
109	0x3d2a334f	0.041552838
110	0xbc1daaf3	-0.009623277
111	0x3d110d2e	0.03541296
112	0x3d14fcd9	0.036373947
113	0xbd36c78e	-0.044623904
114	0xbc56214e	-0.013069464
115	0x3cd2eadc	0.025746755
116	0xbd6bc89a	-0.057564355
117	0xbcd19044	-0.025581487
118	0x3b58cdf4	0.0033081742
119	0xbca840db	-0.020538738
120	0xbcce4c97	-0.025183005
121	0xbd026010	-0.031829894
122	0x3dbc8333	0.09204712
123	0x3cdc2071	0.026870938
124	0x3d5e7f8c	0.054320857
125	0x3d993d0c	0.07482347
126	0x3d86e3ef	0.06586444
127	0xbb924130	-0.0044633374
128	0x3da3f8b1	0.080064185
129	0x3d5056ae	0.050863914
130	0xbce25207	-0.027627004
131	0xbd6767a2	-0.056495316
132	0xbc8c1747	-0.017100943
133	0xbd8fdd59	-0.070246406
134	0xbcee2616	-0.029070895
135	0xbd071528	-0.03297916
136	0x3d80fb90	0.06297982
137	0x3cb9a150	0.022659928
138	0xbcac7991	-0.021054061
139	0xbd29a4e3	-0.041417014
140	0xbc3de77d	-0.011590836
141	0x3ccb1663	0.024790948
142	0xbc46fb41	-0.012144865
143	0xbbbc0b61	-0.005738661
144	0x3b3a9f62	0.0028476347
145	0x3d3c8851	0.04602844
146	0xbd41892c	-0.047249958
147	0x3d0e48b1	0.034737293
148	0x3d4f21b7	0.050569262
149	0x3d36f099	0.044663046
150	0x3cea4d3c	0.028601281
151	0xbcb2bc81	-0.021818401
152	0x3cd45512	0.025919471
153	0xbd83ac57	-0.064293556
154	0x3d80ff3e	0.062986836
155	0x3d5d2e98	0.053999513
156	0x3d0954ef	0.033528265
157	0xbd4f8e82	-0.050673015
158	0xba98f4e7	-0.0011669666
159	0x3cccd8a2	0.025005642
160	0xbd2df08b	-0.042465728
161	0x3d5f6f48	0.054549485
162	0xbd473032	-0.048629947
163	0xbd5c0709	-0.053717647
164	0x3da26e4e	0.07931195
165	0x3d3de64a	0.0463622
166	0x3d19944f	0.037494954
167	0xbcb1dc72	-0.021711562
168	0x3cbafc04	0.022825249
169	0x3caedb73	0.021344876
170	0xbae7ea8a	-0.00176938
171	0xbd863758	-0.06553525
172	0x3cf5b3f4	0.029993035
173	0x3d5ede02	0.054410942
174	0x3d2ef202	0.042711265
175	0x3b1c7a4c	0.0023876606
176	0xbc155fef	-0.009117111
177	0x3c26eeac	0.01018874
178	0x3d46f43e	0.04857277
179	0x3d0ba7cb	0.034095567
180	0xbc650f61	-0.013980717
181	0xbcacde24	-0.021102019
182	0x3d397715	0.04527958
183	0xbb823653	-0.003973761
184	0x3d98d175	0.07461826
185	0xbba14c47	-0.004922423
186	0xbcfd2cad	-0.030905092
187	0xbd73b6e8	-0.059500605
188	0xbc160b7a	-0.00915801
189	0xbcf5ce8d	-0.030005718
190	0xbb81261b	-0.00394131
191	0xbca8650c	-0.020555995
192	0xbd70d4cb	-0.058796685
193	0x3d7222d0	0.05911523
194	0xbd280ae3	-0.041026007
195	0xbc8486b2	-0.016177509
196	0xb9c6c2f7	-0.00037910763
197	0xbd91f39a	-0.071265414
198	0xbc8d539c	-0.017251782
199	0xbd4f7612	-0.05064971
200	0xbd564cc4	-0.052319303
201	0xbd680c50	-0.056652367
202	0xbd73bc2b	-0.059505623
203	0x3c9d49b0	0.019200176
204	0xbca81dc5	-0.020522008
205	0xbd28c200	-0.041200638
206	0x3d33f159	0.04393134
207	0xbcb66536	-0.022265058
208	0xbd5b052d	-0.053471733
209	0xbc6288fd	-0.013826606
210	0x3a6ab4a0	0.0008953307
211	0xbd767bff	-0.060176846
212	0x3cf05a26	0.029339861
213	0x3c14d76a	0.009084562
214	0x3b8fc768	0.0043877847
215	0x3d04bd70	0.032407224
216	0xbb7de9dd	-0.003874413
217	0xbd6e080f	-0.058113154
218	0xbcdca38e	-0.026933458
219	0x3d4a46bd	0.049383868
220	0x3c91bcac	0.017790161
221	0x3d4e9e4b	0.05044393
222	0xbcfb96f2	-0.030711625
223	0x3d02bfd0	0.031921208
224	0xbd99a5da	-0.07502337
225	0x3d54309e	0.051804177
226	0x3d8b7b56	0.06810634
227	0xbcd87ead	-0.026427591
228	0x3ce46b95	0.02788333
229	0xbd8a42a6	-0.067509934
230	0xbda2a8a4	-0.07942322
231	0xbb6a4304	-0.003574551
232	0xbaec8755	-0.0018045703
233	0x3d76d167	0.060258295
234	0x3d6b9ee8	0.05752459
235	0xbd134a64	-0.035959616
236	0x3d7b53b3	0.06135912
237	0xbc1d7669	-0.009610751
238	0xbd1feea4	-0.039045945
239	0x3da328ae	0.079667434
240	0xbce6c968	-0.02817221
241	0x3d071d93	0.03298719
242	0xbbde12fb	-0.006777165
243	0xbcf6215a	-0.0300452
244	0x3bb4caef	0.0055173556
245	0xbd14a9a9	-0.036294613
246	0x3d3fe26d	0.046846796
247	0xbc301313	-0.010746735
248	0xbba6924c	-0.005083358
249	0x3c3ad1ae	0.011402531
250	0x3d3c74d4	0.046009853
251	0xbbfc5e63	-0.0077016815
252	0xbd88b8ac	-0.06675848
253	0xbd734561	-0.059392337
254	0xbcaeb76d	-0.021327699
255	0x3d91b221	0.071140535
